higgs_classifier.pt (torch, 661137 bytes, 59 tensors)

network.0.weight f4 [256, 31]
-0.0015892143 -0.027565422 0.120254315 -0.13238753 0.09254038 0.005064014 -0.050567888 0.29474154
0.095055126 0.07349545 -0.24094321 0.11119163 0.015280718 0.007595115 -0.0146426 -0.011211671
-0.12312328 -0.006944431 -0.22876334 0.13785285 -0.10173271 -0.09841743 -0.23931594 0.1498717
0.01283025 -0.1736844 0.058092076 0.10119973 -0.19572435 -0.0148276165 -3.0135972 -0.002359843
0.0029129174 0.010672715 -0.005304214 0.11241649 -0.024058735 0.048388276 0.14700492 -0.0020287726
0.011808878 0.032196116 0.14137302 -0.08131504 0.002653624 -0.056272805 -0.031734042 -0.014408588
0.026045596 -0.016120974 0.00036079722 -0.03473434 -0.0024565866 -0.12160101 0.05903543 0.02988521
-0.08218341 0.1381895 -0.020027217 -0.17129025 -0.05142766 -4.1280136 -0.1727084 0.01781416
0.0856739 -0.05869226 0.011112967 -0.13019127 -0.19215778 0.17192183 -0.35643566 -0.16243978
0.088330254 -0.23112173 -0.09087147 -0.23365116 -0.103013 -0.20126955 -0.014130708 -0.036975536
0.2650718 -0.18314582 -0.03748273 -0.093813404 0.0855461 -0.12480733 0.09326453 -0.040465306
0.054053843 0.023654724 -0.031981323 0.10553102 -0.5792425 -0.20135438 -0.17043759 -0.712054
-0.10204069 0.026484743 -0.07641611 0.063981384 -0.8849295 0.0696671 0.050296247 0.013955956
-1.1900072 0.052429873 0.021394933 -0.17860745 0.111796975 -0.11219198 0.124463074 -0.15149769
-0.15104197 -0.01927132 0.04092739 0.10596096 0.019841246 0.04028614 0.11374141 -0.103905626
0.01787819 0.06868482 -0.00420323 2.7447085 -0.0074223806 0.15461 0.43137318 -0.048505165
-0.13817544 0.02784123 -0.045449916 0.57612926 0.0578733 -0.14324881 0.66383547 0.053694576
0.04527451 -0.5973227 0.014354481 -0.20621625 -0.120892815 -0.048430644 -0.12154303 0.24578997
0.06952792 0.0067791594 0.08624362 0.13196635 -0.043776724 -0.018362354 0.14493082 0.05305901
-0.0712287 0.035017837 1.7554802 0.32388142 -0.0091930255 0.0903154 -0.0062035164 -0.013239153
0.13660868 -0.008395738 0.7543641 0.47692576 0.055530652 -0.16380547 0.8132743 0.07752927
0.009447198 0.050067753 -0.13124977 -0.14787722 0.19075035 0.10487257 0.092681475 0.117279604
-0.096297644 -0.18940909 0.053922843 -0.03597032 0.00015640931 -0.0962083 -0.15211414 0.033444867
-0.040491197 -3.0283544 -0.11312011 -0.17147022 -0.48876038 0.1773796 0.08804736 0.11851517
0.020880278 -0.03902781 -0.112339586 -0.13026904 -0.46034887 -0.24927507 -0.0085248025 0.03556694
-0.24609528 -0.006380373 0.077761136 0.043897994 0.11621312 -0.19814926 -0.059685286 -0.088318616
-0.10875529 -0.015988918 -0.17040473 -0.08931142 0.040992312 -0.037908003 0.00036075158 0.088911474
-2.0033042 -0.025078744 -0.11390088 0.20671654 0.29758218 -0.03387611 0.08801276 0.1195619
-0.33521894 -0.04888763 -0.12786001 0.13890763 -0.041710876 -0.13895386 -0.17280887 -0.038517967
0.015477412 0.1292327 -0.19923523 -0.07551613 -0.07940831 -0.043849286 -0.07824225 -0.00020952399
-0.0930892 0.16895455 -0.08615091 -0.009336529 -0.10753392 0.053713884 -0.017567929 1.4671814
-0.03073 0.13730526 -0.28049803 0.20477328 -0.14662476 -0.10481916 0.12592982 -0.060212858
00000000: 2f4d d0ba e1d0 e1bc e547 f63d 9990 07be
00000010: d085 bd3d 07f0 a53b 4620 4fbd 5de8 963e
00000020: 43ac c23d c884 963d d1b9 76be 70b8 e33d
00000030: fa5b 7a3c 71e0 f83b 84e7 6fbc 28b1 37bc
00000040: 0f28 fcbd 1c8e e3bb f040 6abe 4c29 0d3e
00000050: 3d59 d0bd 148f c9bd 3d0f 75be f877 193e
00000060: f835 523c 53da 31be f5f1 6d3d ce41 cf3d
00000070: f76b 48be 88ef 72bc c7de 40c0 99a7 1abb
00000080: a5e6 3e3b 9cdc 2e3c f9ce adbb 9e3a e63d
00000090: d316 c5bc c932 463d 7588 163e 28f5 04bb
000000a0: 067a 413c 13e0 033d 17c4 103e 8088 a6bd
000000b0: 6ce8 2d3b 507e 66bd 8efb 01bd 0012 6cbc
000000c0: 935d d53c 2210 84bc 6229 bd39 9845 0ebd
000000d0: affe 20bb f309 f9bd 23cf 713d d4d1 f43c
000000e0: c74f a8bd 8c81 0d3e 1e10 a4bc b666 2fbe
000000f0: cfa5 52bd b018 84c0 79da 30be 00ef 913c
00000100: cc75 af3d 4c67 70bd 2913 363c dc50 05be
00000110: 02c5 44be 470c 303e bc7e b6be 9d56 26be
00000120: 7ee6 b43d 2dab 6cbe d21a babd 4042 6fbe
00000130: 7bf8 d2bd 9b19 4ebe 7c84 67bc a973 17bd
00000140: 7eb7 873e 948a 3bbe 7e87 19bd 3e21 c0bd
00000150: cb32 af3d fc9a ffbd 7901 bf3d f3be 25bd
00000160: 9067 5d3d 8dc7 c13c d9fe 02bd a620 d83d
00000170: 3d49 14bf d82f 4ebe 3187 2ebe 2c49 36bf
00000180: b6fa d0bd 88f6 d83c 0d80 9cbd ac08 833d
00000190: bd8a 62bf a0ad 8e3d 7003 4e3d 86a7 643c
000001a0: 2852 98bf b5c0 563d 6d44 af3c dfe4 36be
000001b0: d0f5 e43d e9c4 e5bd 7fe6 fe3d 3622 1bbe
000001c0: bfaa 1abe e3de 9dbc 7ba3 273d 0f02 d93d
000001d0: 1c8a a23c 1403 253d 42f1 e83d 79cc d4bd
000001e0: 4875 923c a0aa 8c3d 40bb 89bb 4ea9 2f40
000001f0: 7137 f3bb 1552 1e3e f2dc dc3e 5aad 46bd
00000200: dd7d 0dbe 4b13 e43c b129 3abd 357d 133f
00000210: 8e0c 6d3d d1af 12be 1ff1 293f d8ee 5b3d
00000220: c471 393d 24ea 18bf 0f2f 6b3c 5a2a 53be
00000230: a796 f7bd 365f 46bd 8deb f8bd 5eb0 7b3e
00000240: a764 8e3d b623 de3b 7fa0 b03d 3022 073e
00000250: 394f 33bd a66c 96bc bf68 143e 6854 593d
00000260: 5ae0 91bd dd6e 0f3d 93b3 e03f c9d3 a53e
00000270: 589e 16bc 48f7 b83d de46 cbbb 08e9 58bc
00000280: 25e3 0b3e 478e 09bc 011e 413f 9d2f f43e
00000290: 1c74 633d 9fbc 27be bf32 503f aac7 9e3d
000002a0: 6cc8 1a3c d813 4d3d 5766 06be 206d 17be
000002b0: 0f54 433e 6ec7 d63d c9cf bd3d 4a30 f03d
000002c0: b337 c5bd 75f4 41be 33de 5c3d 9d55 13bd
000002d0: ce01 2439 db08 c5bd cfc3 1bbe 7cfd 083d
000002e0: 19da 25bd 8fd0 41c0 84ab e7bd e495 2fbe
000002f0: cd3e fabe ffa2 353e 2d52 b43d 15b8 f23d
00000300: 1e0d ab3c a0db 1fbd 4c12 e6bd 3f65 05be
00000310: d9b2 ebbe f741 7fbe 9dab 0bbc a4ae 113d
00000320: 6700 7cbe 7312 d1bb 3b41 9f3d 62ce 333d
00000330: 2501 ee3d a4e7 4abe 8f78 74bd 64e0 b4bd
00000340: 18bb debd 31fb 82bc 947e 2ebe e8e8 b6bd
00000350: 8ee7 273d 6c45 1bbd 4223 bd39 3817 b63d
00000360: 2336 00c0 f071 cdbc dd44 e9bd 80ad 533e
00000370: b15c 983e adc1 0abd 0940 b43d dfdc f43d
00000380: d1a1 abbe 653e 48bd bced 02be cd3d 0e3e
00000390: 06d9 2abd ec49 0ebe cff4 30be 04c5 1dbd
000003a0: f994 7d3c 9455 043e 5204 4cbe 33a8 9abd
000003b0: d3a0 a2bd 4f9b 33bd 793d a0bd abb3 5bb9
000003c0: 8da5 bebd 6c02 2d3e e36f b0bd 3ef8 18bc
000003d0: be3a dcbd 1703 5c3d 9eea 8fbc 9acc bb3f
000003e0: 7bbd fbbc c099 0c3e 709d 8fbe 16b0 513e
000003f0: cd24 16be 6eab d6bd bff3 003e c2a1 76bd

network.0.bias f4 [256]
-0.07910911 -0.15238328 0.12959228 -0.040298443 0.04316698 -0.07384488 -0.15977228 -0.11486329
0.13214166 -0.12149574 -0.17214726 -0.107092 0.101387985 0.090195596 0.14586648 0.11001186
-0.16193624 0.06533794 0.051094163 0.17615794 -0.12014513 0.040580757 0.042694584 0.06508612
0.11283009 0.1765565 0.0021689879 -0.11231361 -0.14791554 -0.14542046 0.088205755 -0.047390435
-0.059901103 0.06473365 0.09416455 -0.02832854 -0.09043798 -0.019785121 0.14146203 -0.15149924
0.036135357 -0.15540773 0.019085085 0.060575496 -0.115423456 0.061716318 0.16360818 0.16947377
0.031418096 -0.08103485 -0.022677707 -0.04291479 -0.17239752 -0.11502762 -0.010662686 -0.025183622
0.026319148 -0.1695433 -0.16813268 0.15060364 -0.0421993 0.014058194 0.17677668 -0.0016615337
0.17446077 -0.047457792 -0.071195915 0.018290032 0.17085092 -0.03231874 -0.1003552 -0.10740822
0.06933634 0.048335224 -0.05462008 0.101110645 0.04467718 0.13125786 -0.014226906 0.12173888
0.073995784 0.10042688 0.07027814 -0.020098418 -0.0351537 0.104306884 0.108235344 0.14339074
-0.12284681 -0.16031356 -0.14517583 -0.11983776 0.07260242 0.08165625 0.14185633 -0.17540798
0.14104298 0.034222953 -0.15853736 0.14022832 0.1225155 -0.12128971 -0.072837085 -0.04451776
-0.1636552 -0.17429079 -0.14347962 0.04189004 0.11490192 0.14856653 -0.090169504 -0.10773156
0.04714731 0.07941783 0.17896633 0.15385196 0.06833798 0.17458367 0.1572998 0.0017651517
-0.10368273 -0.014344721 -0.07711901 -0.12762763 0.07141531 0.17922577 -0.008882259 -0.08560133
0.1474593 -0.101103745 0.04157803 0.113995686 -0.028417476 0.081970066 0.11736801 0.04790652
-0.10574237 0.050732285 0.0036292954 -0.09465273 0.16919763 -0.17332664 -0.071029074 0.09175121
-0.11536453 -0.06513394 0.14201953 -0.09269096 -0.107640274 -0.16713403 -0.08069855 -0.12832487
-0.04978142 0.05263934 0.15089214 -0.011421127 0.0111484425 0.14414833 0.01358495 0.028938208
0.16602615 -0.15453869 0.07160312 -0.09063828 -0.00634395 -0.17864093 0.019303191 -0.1239377
-0.17074485 0.04116482 0.0033769805 0.11743286 -0.03441069 0.029268898 -0.1778672 -0.0270296
-0.053574573 0.02598142 -0.12589523 0.12777233 0.04512476 -0.01529326 -0.054312143 -0.039998524
0.16305652 -0.11949679 0.10250311 -0.15235478 0.13849513 -0.07717011 0.14326045 -0.028667016
0.16699445 0.17209616 -0.09014504 0.017825358 0.03493305 0.026670875 -0.13753785 -0.07925418
-0.034518164 -0.09183623 -0.096495815 -0.14241119 -0.15450919 -0.01984155 0.07832401 0.03802702
-0.17324008 -0.03530695 -0.0691376 -0.072129734 -0.03110997 -0.0889717 0.12878445 -0.025645642
0.007150272 0.16656287 0.024651635 0.009172488 -0.12259335 0.17159115 0.101039395 -0.17873025
-0.09709449 0.09125423 0.16836049 0.018906694 0.09378211 0.0943523 -0.15966411 0.01645664
0.059663545 -0.012735045 0.11052254 0.060407825 -0.17598397 0.0026384615 0.15584919 -0.15687628
-0.16953103 0.0866763 -0.13950916 -0.12034902 -0.019634316 -0.15050152 -0.018802779 0.1115034
-0.03273864 -0.04236857 0.17151839 0.03322115 0.03774923 -0.17000107 -0.034061387 -0.14879699
00000000: f503 a2bd 5d0a 1cbe d7b3 043e fb0f 25bd
00000010: dccf 303d fc3b 97bd 589b 23be 723d ebbd
00000020: 2550 073e c2d2 f8bd 5f47 30be 0d53 dbbd
00000030: 81a4 cf3d 78b8 b83d 065e 153e e64d e13d
00000040: 9dd2 25be e6cf 853d 1d48 513d bf62 343e
00000050: a60e f6bd 0238 263d 84e0 2e3d df4b 853d
00000060: 7613 e73d 3acb 343e 9425 0e3b ae04 e6bd
00000070: 2c77 17be 1ae9 14be 38a5 b43d 791c 42bd
00000080: dc5a 75bd 1393 843d 58d9 c03d 4111 e8bc
00000090: 8c37 b9bd 6814 a2bc 6cdb 103e 9e22 1bbe
000000a0: ab02 143d 3423 1fbe 5358 9c3c 031e 783d
000000b0: 2263 ecbd 40ca 7c3d e788 273e 888a 2d3e
000000c0: 43b0 003d 99f5 a5bd 99c6 b9bc 6bc7 2fbd
000000d0: fa88 30be 9a93 ebbd 8cb2 2ebc e24d cebc
000000e0: 419b d73c c29c 2dbe f92a 2cbe d737 1a3e
000000f0: 2cd9 2cbd 5754 663c f204 353e d2c7 d9ba
00000100: d8a5 323e 1a63 42bd 2acf 91bd fad4 953c
00000110: 8bf3 2e3e a860 04bd 0787 cdbd d7f8 dbbd
00000120: 3600 8e3d 28fb 453d 4eb9 5fbd 1913 cf3d
00000130: 6bff 363d 7668 063e f817 69bc 3c52 f93d
00000140: 1a8b 973d 9cac cd3d fced 8f3d 70a5 a4bc
00000150: 53fd 0fbd d99e d53d 7eaa dd3d 06d5 123e
00000160: 1c97 fbbd 3d29 24be f9a8 14be 806d f5bd
00000170: 94b0 943d 643b a73d c942 113e 269e 33be
00000180: 926d 103e 5e2d 0c3d 9e57 22be 0398 0f3e
00000190: 68e9 fa3d bd66 f8bd 9c2b 95bd 4158 36bd
000001a0: 3b95 27be 4979 32be 52ec 12be e494 2b3d
000001b0: b351 eb3d d321 183e caaa b8bd 5da2 dcbd
000001c0: 8a1d 413d d1a5 a23d f342 373e 5e8b 1d3e
000001d0: c8f4 8b3d 10c6 323e 3313 213e aa5c e73a
000001e0: 9c57 d4bd 1f06 6bbc 92f0 9dbd d1b0 02be
000001f0: 3142 923d f686 373e e586 11bc c04f afbd
00000200: 92ff 163e 7b0f cfbd b94d 2a3d 9276 e93d
00000210: c4cb e8bc ecdf a73d a45e f03d a139 443d
00000220: 758f d8bd a8cc 4f3d 79d9 6d3b 4ad9 c1bd
00000230: 2542 2d3e 8a7c 31be b177 91bd 0fe8 bb3d
00000240: 3d44 ecbd f164 85bd 916d 113e c2d4 bdbd
00000250: 8172 dcbd 2f25 2bbe 4845 a5bd 9867 03be
00000260: 9ae7 4bbd 599c 573d 7883 1a3e ae1f 3bbc
00000270: f5a7 363c 9f9b 133e 6993 5e3c d20f ed3c
00000280: c202 2a3e 643f 1ebe a8a4 923d 90a0 b9bd
00000290: e9e0 cfbb a6ed 36be ba21 9e3c 0dd3 fdbd
000002a0: bdd7 2ebe 719c 283d 5550 5d3b a480 f03d
000002b0: 39f2 0cbd 54c5 ef3c d222 36be 2e6d ddbc
000002c0: 0371 5bbd fdd6 d43c aeea 00be c0d6 023e
000002d0: bed4 383d 9590 7abc 6976 5ebd 7ed5 23bd
000002e0: 4af8 263e bcba f4bd 27ed d13d e402 1cbe
000002f0: abd1 0d3e 5d0b 9ebd deb2 123e 17d7 eabc
00000300: 9800 2b3e fa39 303e f69d b8bd 7c06 923c
00000310: f515 0f3d e17c da3c b9d6 0cbe 0450 a2bd
00000320: eb62 0dbd a214 bcbd 999f c5bd 3dd4 11be
00000330: a837 1ebe bf8a a2bc 5768 a03d 38c2 1b3d
00000340: d965 31be 059e 10bd 0498 8dbd c1b8 93bd
00000350: 56da febc cb36 b6bd 12e0 033e cf16 d2bc
00000360: d44c ea3b 758f 2a3e 3af2 c93c 3448 163c
00000370: 3912 fbbd 97b5 2f3e beed ce3d 1005 37be
00000380: 7ad9 c6bd 7fe3 ba3d b166 2c3e 36e2 9a3c
00000390: d610 c03d c73b c13d fd7e 23be 13d0 863c
000003a0: c361 743d a6a6 50bc a459 e23d 326e 773d
000003b0: 2435 34be 0aea 2c3b ee96 1f3e 2da4 20be
000003c0: 8b99 2dbe 5883 b13d 7ddb 0ebe 8c79 f6bd
000003d0: 25d8 a0bc 121d 1abe 4908 9abc e55b e43d
000003e0: f418 06bd aa8a 2dbd 84a2 2f3e e712 083d
000003f0: f09e 1a3d c314 2ebe f483 0bbd 3d5e 18be

network.1.weight f4 [256]
0.9011624 1.1143956 0.7961001 0.8699064 0.9374409 0.8909046 0.8129396 0.9034094
0.73069704 0.75641304 0.8237564 0.8859375 0.7861302 1.1125523 0.93375736 0.78163314
0.79621947 0.90732133 0.9073846 0.915817 1.0386925 0.89452004 0.83481336 1.0054041
0.9776952 0.7900082 0.7242707 0.70469564 0.8864478 0.99567723 0.80276006 0.89282984
0.8510883 0.7918462 0.85436386 0.91056037 0.86793435 1.0295513 0.79215425 0.91632354
0.8065068 0.8083894 0.75876623 1.0725241 0.8494602 0.7178296 0.8207433 0.83437115
0.8524317 0.85409576 1.2296298 1.0042766 0.71567875 0.8434405 0.9320355 1.2529896
0.7774353 0.8529979 0.8634912 0.7710997 0.8391444 1.1783825 0.7981284 0.96054757
1.1067232 0.7344871 0.9324445 1.0856096 0.85423595 0.86443794 0.9394236 0.84732556
0.80065304 0.8485102 0.9251468 0.91350615 0.7162717 0.8063283 1.0579381 0.9155979
0.82450557 0.73427707 1.0022286 0.8883955 0.8655656 0.7625805 0.84517086 0.768808
0.98000014 0.744112 0.7735751 0.86830854 0.76736647 0.724427 0.74033713 0.80629194
0.8846475 0.9171165 0.8152355 0.98613465 1.1214491 1.1120932 0.8127388 0.94503677
0.9324458 1.0000415 0.77121925 0.9071313 1.2550817 1.1677527 0.9685875 0.84845066
0.8850658 0.7752297 1.0782504 0.8995891 0.7395293 0.8112028 0.7590042 1.0956851
0.76528186 0.8945357 1.0727571 1.269213 0.85589314 0.78821456 1.1066778 0.8067107
0.7510332 0.82845306 0.8153481 0.9609555 0.77463186 0.95279646 0.81003577 0.75335974
0.8761882 1.0829026 1.0390017 0.80314666 0.7175246 0.82562304 0.79319555 1.0190774
0.82360476 0.94353527 0.8395022 0.73558986 0.7859887 1.0923423 1.1305611 0.7704488
0.9235041 0.90405643 0.72632277 0.99691015 1.011605 0.7922339 0.96457803 0.92687553
0.86801374 0.83433074 0.98704726 0.814361 1.0678643 0.8411052 0.94261724 0.7510341
0.7625263 0.820411 0.89524215 0.8835541 0.9081598 0.99656326 1.0799505 1.0207043
0.96736425 0.7787644 0.7672494 0.7776254 0.9800382 0.7440918 0.7298657 0.83741385
0.83071727 0.70711297 0.71633863 1.0247668 0.7968755 0.78569984 0.86246765 0.86771345
0.75390226 1.0315356 0.9792462 0.8112075 1.3728511 0.73437244 0.96800965 0.8422745
0.89816976 0.9291792 1.1074944 0.80155903 1.0266026 0.95432687 0.91743994 0.8573325
0.77411515 1.1859587 0.958571 0.9980856 1.1039656 0.9081172 0.96462864 0.8690048
1.124457 0.84953463 0.7558109 0.73617697 0.93986636 0.83591586 0.8221469 0.90104514
0.87894034 0.74984604 0.75332296 0.76660794 0.9349551 1.0040659 1.1125586 0.77204335
0.724374 0.8370214 0.9768949 0.91443557 1.0381259 0.8409412 0.748196 1.2145689
0.999518 0.7784395 0.8633827 0.69520175 0.87853056 0.75157756 0.97110134 0.94538546
1.0015281 0.8622674 0.8635008 0.7448698 0.7068509 0.8184239 1.0133555 0.93158257
00000000: 94b2 663f 84a4 8e3f 37cd 4b3f 30b2 5e3f
00000010: 20fc 6f3f 5312 643f cf1c 503f d745 673f
00000020: f60e 3b3f 49a4 413f b3e1 523f cdcc 623f
00000030: d43f 493f 1d68 8e3f b90a 6f3f 1c19 483f
00000040: 0ad5 4b3f 3646 683f 5b4a 683f fc72 6a3f
00000050: e0f3 843f 44ff 643f 54b6 553f 15b1 803f
00000060: 3c4a 7a3f fa3d 4a3f ce69 393f ef66 343f
00000070: 3eee 623f b4e4 7e3f af81 4d3f 7f90 643f
00000080: ece0 593f 6fb6 4a3f 97b7 5a3f 7c1a 693f
00000090: f230 5e3f 56c8 833f 9fca 4a3f 2e94 6a3f
000000a0: 3b77 4e3f 9cf2 4e3f 813e 423f 7848 893f
000000b0: 3976 593f aec3 373f 3c1c 523f 5999 553f
000000c0: f738 5a3f 05a6 5a3f 8264 9d3f 238c 803f
000000d0: b936 373f b7eb 573f e199 6e3f f761 a03f
000000e0: 0006 473f 125e 5a3f c20d 5d3f ca66 453f
000000f0: 2bd2 563f 3dd5 963f 2552 4c3f 72e6 753f
00000100: 1ba9 8d3f 5907 3c3f afb4 6e3f 41f5 8a3f
00000110: 35af 5a3f ce4b 5d3f 117e 703f 54ea 583f
00000120: 99f7 4c3f f737 593f 6cd6 6c3f 8adb 693f
00000130: 955d 373f 886b 4e3f 846a 873f a064 6a3f
00000140: cc12 533f 95f9 3b3f 0749 803f e36d 633f
00000150: b595 5d3f 7a38 433f 1e5d 583f 9ad0 443f
00000160: 4ae1 7a3f 207e 3e3f 0509 463f 7849 5e3f
00000170: 2172 443f 0c74 393f bc86 3d3f 2669 4e3f
00000180: 4278 623f 26c8 6a3f 46b3 503f 5273 7c3f
00000190: a58b 8f3f 1259 8e3f a60f 503f eeed 713f
000001a0: c5b4 6e3f 5c01 803f a06e 453f c239 683f
000001b0: 84a6 a03f ec78 953f 5af5 773f 1034 593f
000001c0: ac93 623f 7475 463f 1c04 8a3f 794b 663f
000001d0: cb51 3d3f fdaa 4f3f 194e 423f 693f 8c3f
000001e0: 83e9 433f 4b00 653f 1b50 893f 9275 a23f
000001f0: d01b 5b3f 6ec8 493f 9ea7 8d3f 9884 4e3f
00000200: b643 403f 8015 543f a7ba 503f 2e01 763f
00000210: 464e 463f 78ea 733f 815e 4f3f 2fdc 403f
00000220: df4d 603f 8d9c 8a3f 02fe 843f 059b 4d3f
00000230: b1af 373f 085c 533f dd0e 4b3f 2171 823f
00000240: c3d7 523f 878b 713f 9ee9 563f 9e4f 3c3f
00000250: 8e36 493f dfd1 8b3f 3ab6 903f 223c 453f
00000260: c46a 6c3f 3e70 673f 4af0 393f 8135 7f3f
00000270: 467c 813f d7cf 4a3f 96ee 763f b747 6d3f
00000280: 2636 5e3f b396 553f 21af 7c3f f679 503f
00000290: c7af 883f ac52 573f 5d4f 713f c543 403f
000002a0: ec34 433f 7506 523f 972e 653f 9a30 623f
000002b0: 297d 683f c51e 7f3f d13b 8a3f 70a6 823f
000002c0: 2fa5 773f 1b5d 473f 756a 443f 7512 473f
000002d0: c9e3 7a3f cd7c 3e3f 7ad8 3a3f c160 563f
000002e0: e3a9 543f 5b05 353f f861 373f 8f2b 833f
000002f0: 0800 4c3f a023 493f aeca 5c3f 7822 5e3f
00000300: bdff 403f 5c09 843f e1af 7a3f 4bab 4f3f
00000310: 96b9 af3f d5ff 3b3f 7bcf 773f 4d9f 573f
00000320: 74ee 653f b0de 6d3f 60c2 8d3f f932 4d3f
00000330: b767 833f c44e 743f 58dd 6a3f 257a 5b3f
00000340: 692c 463f 7fcd 973f e964 753f 8a82 7f3f
00000350: bf4e 8d3f 5e7a 683f e7f1 763f 1977 5e3f
00000360: 35ee 8f3f 1a7b 593f d37c 413f 1876 3c3f
00000370: 159b 703f 95fe 553f 3878 523f e5aa 663f
00000380: 3c02 613f e9f5 3f3f c6d9 403f 6b40 443f
00000390: 3859 6f3f 3b85 803f 5268 8e3f a2a4 453f
000003a0: 9370 393f 0947 563f c915 7a3f 7318 6a3f
000003b0: 4fe1 843f ec47 573f c689 3f3f fe76 9b3f
000003c0: 69e0 7f3f d047 473f a606 5d3f bef8 313f
000003d0: 61e7 603f 6367 403f 199a 783f c804 723f
000003e0: 1332 803f 8ebd 5c3f 630e 5d3f caaf 3e3f
000003f0: 2ef4 343f 3b84 513f a2b5 813f 327c 6e3f

network.1.bias f4 [256]
-0.1983936 -0.6788825 -0.1971526 -0.16879757 -0.17683478 -0.16475905 -0.19713259 -0.11441054
-0.22865471 -0.26561186 -0.19489515 -0.24229626 -0.2279218 -0.22123013 -0.14851616 -0.18305317
-0.22080931 -0.6045103 -0.22415295 -0.22177763 -0.08611763 -0.13398436 -0.15912075 -0.14072281
-0.1668356 -0.23592451 -0.2565364 -0.29907516 -0.28313485 -0.043239374 -0.20030668 -0.12784255
-0.13768366 -0.2748233 -0.1463784 -0.07505797 -0.122174375 -0.12262348 -0.22795656 -0.19404322
-0.1894617 -0.2136611 -0.23667371 -0.44952825 -0.261449 -0.21199751 -0.21304183 -0.14757687
-0.12037388 -0.12968563 -0.17347094 -0.19389749 -0.28174642 -0.14984365 -0.18389396 -0.19025499
-0.36589608 -0.24389522 -0.12576084 -0.23711456 -0.21509144 -0.035443492 -0.2001344 -0.20197207
-0.26855403 -0.23838381 -0.11482698 -0.06315352 -0.2042738 -0.17543401 -0.10787456 -0.25220323
-0.28710026 -0.17085871 -0.41189757 -0.30856732 -0.29720446 -0.2537184 -0.23149337 -0.35761663
-0.18332748 -0.2260493 -0.013139486 -0.20977123 -0.19435684 -0.18468563 -0.11005454 -0.23883328
-0.13738431 -0.22867483 -0.2440564 -0.20445064 -0.27572092 -0.26258197 -0.2667281 -0.19597015
-0.19896506 -0.16551435 -0.23362395 -0.15233065 -0.2553181 -0.026426967 -0.21081227 -0.08310755
-0.33195004 -0.2867871 -0.20108266 -0.185458 -0.18770234 -0.1368611 -0.27873352 -0.27441397
-0.13486701 -0.2451495 -0.11745538 -0.10276577 -0.24125978 -0.2550658 -0.25016123 -0.29426473
-0.26651734 -0.2507601 -0.6417071 -0.2648053 -0.13639982 -0.30607405 -0.16832657 -0.20255229
-0.25377938 -0.34271398 -0.1832941 -0.11617075 -0.21924795 -0.20057938 -0.21949288 -0.2578091
-0.17152183 -0.20390435 -0.24785307 -0.20952713 -0.2628397 -0.22765262 -0.20722924 -0.16493666
-0.18069464 -0.32568014 -0.3168927 -0.27282646 -0.18821938 -0.1882738 -0.20811689 -0.2348194
-0.3908219 -0.10226405 -0.2502834 -0.060499884 -0.38932654 -0.1582978 -0.09639159 -0.16786145
-0.099142626 -0.18072388 -0.23728345 -0.18769737 -0.32162496 -0.65915227 -0.26078027 -0.24581361
-0.19904028 -0.18633889 -0.33412403 -0.08820197 -0.1919514 -0.13743299 -0.06011141 -0.12394624
-0.1535097 -0.24100499 -0.22029185 -0.17975128 -0.27942938 -0.22248489 -0.3175815 -0.22561318
-0.22667849 -0.29490504 -0.26533166 -0.13961951 -0.17085278 -0.21312895 -0.14975227 -0.16735186
-0.24374574 -0.015754702 -0.2215902 -0.18735614 -0.18046033 -0.24830694 -0.16565257 -0.5446407
-0.19449022 -0.31058007 -0.037339132 -0.20550023 -0.33145186 -0.17799827 -0.16600952 -0.15541261
-0.19505325 -0.24263151 -0.16453916 -0.11110156 -0.07508674 -0.21306263 -0.25290293 -0.19804555
-0.21774761 -0.18941489 -0.2175579 -0.2954621 -0.1739802 -0.15315072 -0.17222111 -0.15194932
-0.25989476 -0.16015208 -0.23799866 -0.23835167 -0.20855092 -0.35062566 -0.20149127 -0.18620221
-0.26712704 -0.24507323 -0.6250696 -0.09887005 -0.17755638 -0.19003092 -0.23250161 -0.16433102
-0.24731547 -0.21305734 -0.16790068 -0.32478178 -0.2489871 -0.27017596 -0.15394354 -0.15929572
-0.21208346 -0.11549928 -0.16215749 -0.17982157 -0.32768103 -0.2284884 -0.100197926 -0.19076736
00000000: b127 4bbe 3ecb 2dbf 5fe2 49be 45d9 2cbe
00000010: 2d14 35be 99b6 28be 20dd 49be 1350 eabd
00000020: 7624 6abe 47fe 87be 9892 47be 831c 78be
00000030: 5564 69be 278a 62be 9f14 18be 4a72 3bbe
00000040: d61b 62be 30c1 1abf 5a88 65be ad19 63be
00000050: 715e b0bd 3233 09be 8df0 22be a419 10be
00000060: f4d6 2abe 3296 71be bd58 83be 6120 99be
00000070: 0df7 90be c51b 31bd 321d 4dbe 28e9 02be
00000080: f2fc 0cbe a4b5 8cbe 38e4 15be feb7 99bd
00000090: 8f36 fabd 0522 fbbd 726d 69be 44b3 46be
000000a0: 3f02 42be fac9 5abe 985a 72be 9128 e6be
000000b0: a5dc 85be e015 59be a327 5abe 641e 17be
000000c0: 9586 f6bd 4fcc 04be 5ea2 31be 108d 46be
000000d0: 1141 90be 9d70 19be b34e 3cbe 34d2 42be
000000e0: bb56 bbbe abbf 79be 73c7 00be 29ce 72be
000000f0: ee40 5cbe 322d 11bd 08f0 4cbe c4d1 4ebe
00000100: ea7f 89be e31a 74be 682a ebbd a256 81bd
00000110: 272d 51be f9a4 33be 56ed dcbd c820 81be
00000120: cefe 92be 96f5 2ebe 3de4 d2be 89fc 9dbe
00000130: 2f2b 98be 61e7 81be 990c 6dbe 8719 b7be
00000140: 33ba 3bbe 7879 67be 0047 57bc 45ce 56be
00000150: 7b05 47be 3b1e 3dbe 4664 e1bd b690 74be
00000160: 79ae 0cbe bc29 6abe ece9 79be 825b 51be
00000170: 4b2b 8dbe 2571 86be 9690 88be 66ac 48be
00000180: 7fbd 4bbe 987c 29be 1e3b 6fbe 91fc 1bbe
00000190: 0eb9 82be 5e7d d8bc 2cdf 57be 4b34 aabd
000001a0: 5bf5 a9be c2d5 92be 9de8 4dbe b4e8 3dbe
000001b0: 0b35 40be 5125 0cbe 29b6 8ebe fd7f 8cbe
000001c0: 941a 0abe 7808 7bbe 728c f0bd dc76 d2bd
000001d0: ce0c 77be fc97 82be 2215 80be dea9 96be
000001e0: f674 88be a163 80be eb46 24bf 8f94 87be
000001f0: 65ac 0bbe bdb5 9cbe cd5d 2cbe de69 4fbe
00000200: 5fef 81be 3578 afbe 73b1 3bbe eeea edbd
00000210: 8982 60be ae64 4dbe bec2 60be 8eff 83be
00000220: 6ba3 2fbe 4dcc 50be 32cd 7dbe 488e 56be
00000230: ed92 86be c51d 69be e733 54be 28e5 28be
00000240: 0408 39be 8cbf a6be c33f a2be e9af 8bbe
00000250: 95bc 40be d9ca 40be 981c 55be 7f74 70be
00000260: cf19 c8be d06f d1bd 2525 80be bace 77bd
00000270: cf55 c7be d218 22be f468 c5bd dfe3 2bbe
00000280: 4a0b cbbd ae0f 39be 6ffa 72be bd33 40be
00000290: 07ac a4be 34be 28bf fe84 85be 90b6 7bbe
000002a0: 37d1 4bbe 9fcf 3ebe 4e12 abbe 3ca3 b4bd
000002b0: e88e 44be 3cbb 0cbe 6237 76bd 87d7 fdbd
000002c0: a631 1dbe 03ca 76be 3094 61be b810 38be
000002d0: 5e11 8fbe 14d3 63be 0b9a a2be 2407 67be
000002e0: 681e 68be cbfd 96be 8dd9 87be 6bf8 0ebe
000002f0: 08f4 2ebe 7a3e 5abe a958 19be 495e 2bbe
00000300: 7c98 79be 0110 81bc 8be8 62be 4ada 3fbe
00000310: 98ca 38be 2d44 7ebe d4a0 29be 936d 0bbf
00000320: 7228 47be 5a04 9fbe ebf0 18bd a76e 52be
00000330: 0fb4 a9be 2e45 36be 66fe 29be 7c24 1fbe
00000340: 0abc 47be 6574 78be f47c 28be 3789 e3bd
00000350: 14c7 99bd 172d 5abe 7e7c 81be 74cc 4abe
00000360: 3bf9 5ebe faf5 41be 80c7 5ebe cf46 97be
00000370: de27 32be 8bd3 1cbe bb5a 30be 9a98 1bbe
00000380: ed10 85be e8fe 23be ecb5 73be 7612 74be
00000390: 5f8e 55be 3585 b3be ba53 4ebe cbab 3ebe
000003a0: e0c4 88be 7af4 7abe 9004 20bf 617c cabd
000003b0: 57d1 35be 7797 42be e714 6ebe 6446 28be
000003c0: 4440 7dbe b42b 5abe 28ee 2bbe cc49 a6be
000003d0: 79f6 7ebe 8154 8abe 60a3 1dbe 6b1e 23be
000003e0: 682c 59be e38a ecbd 9d0c 26be 2523 38be
000003f0: cfc5 a7be ddf8 69be 9234 cdbd 8558 43be

network.1.running_mean f4 [256]
-12.278565 -10.43424 209.00157 -165.53873 -18.34977 0.5592785 -106.24607 21.795961
-349.74475 -131.78645 -103.25842 -17.337835 176.46631 34.481594 -65.021416 -11.260327
47.451042 19.98223 60.35676 -44.47067 -2.9051178 36.685593 30.900541 10.313561
16.53179 508.52606 610.296 -197.5893 -32.084312 -59.729282 72.92146 -25.590105
48.937267 1.6068245 47.24385 5.3046002 -112.03561 -24.415884 -51.640697 -14.850026
134.49738 -122.99704 -73.85468 -11.5245495 -8.638698 239.05505 -129.36125 62.316345
-164.00485 -37.96184 18.273354 76.10653 535.39856 121.37333 -22.610561 15.577719
-72.1974 -34.036583 -28.280838 311.13724 26.970726 24.865631 264.22833 -28.75869
86.22792 -319.4848 11.657961 -0.5789237 -65.50661 -95.96782 -22.226225 -60.62358
-72.31982 19.49234 28.338732 -9.184656 40.539135 -80.06261 72.39804 101.40423
38.990734 -328.3639 -116.82959 -32.017086 -67.31413 272.49454 -40.814064 328.6587
13.387649 -81.554405 328.5643 -98.990585 10.001509 -231.42628 521.35114 52.885925
-21.070698 -20.753157 -97.66502 20.17382 84.961586 -40.97679 -18.16146 -76.83659
-67.7303 -31.886108 -47.908592 22.815796 -71.62916 -44.111385 5.267355 56.043987
-90.616005 -42.983364 4.2313857 9.519288 662.3419 -57.749268 245.78838 10.349795
-301.4723 24.067501 7.7185125 -75.28419 19.551302 25.022858 15.867478 359.16296
-253.14136 -36.574364 198.16713 -85.80932 -311.6766 -163.58635 -93.49837 -102.059456
-43.915054 20.142876 8.341593 -136.50108 452.1439 -110.551956 -139.16304 13.492502
-49.379528 13.967558 -74.916084 -143.52322 -65.495964 -3.8138943 47.549015 -97.17589
-20.118353 -54.072746 16.560318 2.7467322 -12.014169 -58.83967 -59.740566 -80.58732
-82.54605 209.31175 -35.971203 -160.76474 -90.816826 -11.407456 64.27849 -144.29854
-71.884995 155.22943 1.1914096 -25.598284 -14.207081 14.460223 -64.78708 23.66718
10.154963 -187.29474 -260.17462 -212.40927 -20.965105 518.23035 -91.72756 -54.561718
14.921924 131.6808 -269.33023 -91.758514 -135.40782 -56.151356 -117.44263 -57.615185
314.13562 -0.81403726 30.183674 -93.36098 3.7460139 391.6386 26.249048 18.005455
-139.78267 -48.266018 -9.599748 -122.64231 -25.422903 -3.6342187 -96.47733 -14.158249
-444.87265 -57.642372 12.273685 -95.6378 17.869757 -88.09616 -42.77837 -52.963547
116.059364 -2.6099334 -117.46741 623.73926 36.051018 -8.356355 -4.3498135 -148.36671
14.099202 -40.16546 399.77588 397.98904 -58.469418 67.6365 43.42122 -11.817297
-217.6584 -9.001137 -10.056974 138.3105 -80.328735 -92.7283 -80.32182 -90.81532
9.533956 151.65935 -96.628746 375.41882 49.36425 535.079 -20.087755 78.94284
40.652645 -137.49162 13.273122 -254.9458 391.795 -97.19772 -28.623205 5.1779943
00000000: 0175 44c1 a6f2 26c1 6700 5143 ea89 25c3
00000010: 54cc 92c1 e02c 0f3f fd7d d4c2 215e ae41
00000020: 54df aec3 55c9 03c3 5084 cec2 e3b3 8ac1
00000030: 6077 3043 27ed 0942 f70a 82c2 4d2a 34c1
00000040: decd 3d42 9bdb 9f41 526d 7142 f7e1 31c2
00000050: 73ed 39c0 0cbe 1242 4f34 f741 5904 2541
00000060: 1b41 8441 5643 fe43 f292 1844 dc96 45c3
00000070: 5656 00c2 c9ea 6ec2 cad7 9142 89b8 ccc1
00000080: c3bf 4342 6dac cd3f b4f9 3c42 49bf a940
00000090: 3b12 e0c2 bb53 c3c1 1390 4ec2 b599 6dc1
000000a0: 547f 0643 7cfe f5c2 99b5 93c2 8e64 38c1
000000b0: 1b38 0ac1 180e 6f43 7b5c 01c3 f043 7942
000000c0: 3e01 24c3 edd8 17c2 d42f 9241 8b36 9842
000000d0: 82d9 0544 25bf f242 6ee2 b4c1 563e 7941
000000e0: 1265 90c2 7625 08c2 283f e2c1 9191 9b43
000000f0: 0cc4 d741 d0ec c641 3a1d 8443 cc11 e6c1
00000100: b274 ac42 0ebe 9fc3 0287 3a41 5834 14bf
00000110: 6203 83c2 86ef bfc2 4fcf b1c1 8c7e 72c2
00000120: bfa3 90c2 50f0 9b41 b9b5 e241 5af4 12c1
00000130: 1328 2242 0e20 a0c2 cccb 9042 f7ce ca42
00000140: 83f6 1b42 942e a4c3 c0a8 e9c2 7f11 00c2
00000150: d6a0 86c2 4d3f 8843 9a41 23c2 5054 a443
00000160: cf33 5641 db1b a3c2 3b48 a443 2efb c5c2
00000170: 2e06 2041 216d 67c3 7956 0244 308b 5342
00000180: ca90 a8c1 7706 a6c1 7e54 c3c2 fc63 a141
00000190: 55ec a942 3ce8 23c2 ac4a 91c1 56ac 99c2
000001a0: ea75 87c2 c016 ffc1 66a2 3fc2 c086 b641
000001b0: 2142 8fc2 0f72 30c2 2c8e a840 0b2d 6042
000001c0: 653b b5c2 f7ee 2bc2 8367 8740 014f 1841
000001d0: e295 2544 40ff 66c2 d3c9 7543 c398 2541
000001e0: 74bc 96c3 3e8a c041 0efe f640 8191 96c2
000001f0: 1169 9c41 d02e c841 31e1 7d41 dc94 b343
00000200: 3024 7dc3 264c 12c2 c92a 4643 5f9e abc2
00000210: 9bd6 9bc3 1b96 23c3 2aff bac2 711e ccc2
00000220: 04a9 2fc2 9c24 a141 2a77 0541 4780 08c3
00000230: 6b12 e243 9a1a ddc2 bd29 0bc3 4ae1 5741
00000240: a384 45c2 1e7b 5f41 09d5 95c2 f285 0fc3
00000250: effd 82c2 d816 74c0 3132 3e42 0e5a c2c2
00000260: 63f2 a0c1 7e4a 58c2 887b 8441 76ca 2f40
00000270: 093a 40c1 d25b 6bc2 57f6 6ec2 b52c a1c2
00000280: 9417 a5c2 cf4f 5143 83e2 0fc2 c6c3 20c3
00000290: 37a2 b5c2 f184 36c1 968e 8042 6d4c 10c3
000002a0: 1ec5 8fc2 bc3a 1b43 1c80 983f 49c9 ccc1
000002b0: 3450 63c1 135d 6741 fc92 81c2 6256 bd41
000002c0: ba7a 2241 744b 3bc3 5a16 82c3 c668 54c3
000002d0: 89b8 a7c1 be8e 0144 8374 b7c2 333f 5ac2
000002e0: 33c0 6e41 49ae 0343 45aa 86c3 5c84 b7c2
000002f0: 6768 07c3 fd9a 60c2 a0e2 eac2 f375 66c2
00000300: 5c11 9d43 bf64 50bf 2a78 f141 d2b8 bac2
00000310: b1be 6f40 bed1 c343 0dfe d141 2c0b 9041
00000320: 5dc8 0bc3 6710 41c2 9198 19c1 dd48 f5c2
00000330: 1b62 cbc1 0a97 68c0 65f4 c0c2 3088 62c1
00000340: b36f dec3 ca91 66c2 0461 4441 8e46 bfc2
00000350: 43f5 8e41 3c31 b0c2 0d1d 2bc2 acda 53c2
00000360: 651e e842 2609 27c0 50ef eac2 50ef 1b44
00000370: 3e34 1042 a1b3 05c1 ac31 8bc0 e15d 14c3
00000380: 5596 6141 6ea9 20c2 50e3 c743 99fe c643
00000390: afe0 69c2 e345 8742 54af 2d42 a613 3dc1
000003a0: 8da8 59c3 a804 10c1 5ee9 20c1 7d4f 0a43
000003b0: 50a8 a0c2 e474 b9c2 c6a4 a0c2 72a1 b5c2
000003c0: 158b 1841 cba8 1743 eb41 c1c2 9cb5 bb43
000003d0: fe74 4542 0ec5 0544 b9b3 a0c1 bce2 9d42
000003e0: 4f9c 2242 db7d 09c3 b55e 5441 20f2 7ec3
000003f0: c3e5 c343 3c65 c2c2 53fc e4c1 21b2 a540

network.1.running_var f4 [256]
203.1355 111.36264 63197.496 12925.507 1802.1102 20217.363 20102.094 1040.1545
80914.625 39418.19 10940.215 1328.1377 58307.7 613.34796 1054.4751 4901.083
22635.217 261.20703 1729.1022 2081.1265 1197.201 903.0444 3078.0566 221.299
15628.576 115596.6 167075.22 19054.57 66957.086 1363.7927 3516.3018 2527.729
13683.266 17112.654 9513.446 1550.5977 15478.554 768.9554 8522.969 21388.617
10147.9375 7571.0435 8296.03 65.09036 1306.6036 64992.59 28880.898 7612.2163
13035.284 2806.3457 139.0081 1521.7164 191910.66 14279.206 1927.069 705.7024
2739.9568 20088.727 952.5609 115193.79 6264.6147 200.41107 134296.72 1204.9187
1991.2778 77774.54 2643.0588 627.3104 1546.6663 4222.578 827.70844 4833.323
7836.6616 3669.2239 750.625 135.71745 34891.797 29474.541 7544.6167 17140.305
3142.407 113047.875 1994.4907 4982.3037 8067.2827 20525.8 2247.05 94478.54
2249.902 13720.305 57607.426 4048.7585 7903.2153 44590.47 187361.25 23785.148
20353.916 1151.4799 32563.996 2023.6583 5262.1313 585.26575 7315.0234 6814.569
2271.8167 10157.275 4719.0522 517.41797 1422.5718 629.38525 2011.1956 38449.316
8602.786 2247.579 426.61823 3763.2876 149092.12 26279.066 83336.49 18445.229
55096.562 210.78644 263.69565 1261.6804 14946.425 6125.9805 200.77675 96455.61
70874.76 3058.6797 66054.89 7010.6797 116431.125 5673.9883 6736.435 4853.2427
1429.8391 805.6624 1218.1393 14097.822 183055.2 14251.219 14444.687 215.2669
23326.328 272.01578 3960.6348 5016.36 24016.445 50.38026 13306.97 38044.6
339.6156 17792.225 27363.477 333.57776 270.50775 7307.0015 1120.3953 2859.126
13483.048 89926.42 6879.192 9371.988 3540.5264 83.661995 7375.237 62342.16
16798.209 40718.035 87.53251 5441.5376 221.86868 322.87134 1244.2274 291.2573
1081.1647 45102.953 115638.18 16881.203 391.53275 169523.72 2132.679 4868.843
3232.0366 21617.432 25679.049 6396.857 34123.93 11539.461 5117.1777 16768.805
53441.156 661.64514 23716.826 26821.078 165.5359 93572.1 2059.6965 727.5455
25512.63 4552.2363 388.1911 15196.312 586.9734 1083.6663 2264.2166 1550.9071
132027.17 784.02484 103.92158 1138.3683 281.84113 4026.8596 1387.1124 722.5916
8509.352 24777.895 5943.389 194819.64 673.01807 15483.53 3931.9512 10716.701
454.98132 16060.673 109665.32 184200.77 1141.2129 12345.753 599.42944 6538.8804
71479.0 4268.6064 92.29503 4641.893 5809.4795 9146.732 48831.527 1990.8727
406.06302 1951.3557 9010.981 79220.766 18930.844 115949.7 691.009 2542.0718
7649.276 10381.772 3361.65 49291.87 83075.414 5397.547 318.41772 4859.38
00000000: b022 4b43 acb9 de42 7fdd 7647 07f6 4946
00000010: 8743 e144 baf2 9d46 300c 9d46 f204 8244
00000020: 5009 9e47 31fa 1947 dcf0 2a46 6804 a644
00000030: b3c3 6347 4556 1944 34cf 8344 aa28 9945
00000040: 6fd6 b046 809a 8243 4523 d844 0612 0245
00000050: 6fa6 9544 d7c2 6144 e860 4045 8b4c 5d43
00000060: 4e32 7446 4dc6 e147 ce28 2348 24dd 9446
00000070: 8bc6 8247 5e79 aa44 d4c4 5b45 aafb 1d45
00000080: 10cd 5546 4fb1 8546 c9a5 1446 20d3 c144
00000090: 37da 7146 253d 4044 e02b 0546 3c19 a746
000000a0: c08f 1e46 5998 ec45 1fa0 0146 442e 8242
000000b0: 5153 a344 97e0 7d47 cca1 e146 bbe1 ed45
000000c0: 23ad 4b46 8865 2f45 1302 0b43 ed36 be44
000000d0: aa69 3b48 d31c 5f46 35e2 f044 f46c 3044
000000e0: 4f3f 2b45 74f1 9c46 e623 6e44 e5fc e047
000000f0: ebc4 c345 3c69 4843 2e26 0348 669d 9644
00000100: e4e8 f844 45e7 9747 f130 2545 ded3 1c44
00000110: 5255 c144 a0f4 8345 57ed 4e44 960a 9745
00000120: 4be5 f445 9553 6545 00a8 3b44 abb7 0743
00000130: cc4b 0847 1545 e646 efc4 eb45 9ce8 8546
00000140: 8366 4445 f0cb dc47 b44f f944 6eb2 9b45
00000150: 431a fc45 9a5b a046 cd70 0c45 4587 b847
00000160: 6f9e 0c45 3861 5646 6d07 6147 230c 7d45
00000170: b9f9 f645 782e 2e47 50f8 3648 4cd2 b946
00000180: d503 9f46 5bef 8f44 fe67 fe46 11f5 fc44
00000190: 0d71 a445 0251 1244 3098 e445 8df4 d445
000001a0: 11fd 0d45 1ab5 1e46 6b78 9345 c05a 0144
000001b0: 4cd2 b144 a858 1d44 4266 fb44 5131 1647
000001c0: 256b 0646 4479 0c45 224f d543 9a34 6b45
000001d0: 0899 1148 224e cd46 3fc4 a247 751a 9046
000001e0: 9038 5747 54c9 5243 0bd9 8343 c6b5 9d44
000001f0: b389 6946 d86f bf45 d9c6 4843 ce63 bc47
00000200: 616d 8a47 e02a 3f45 7203 8147 7015 db45
00000210: 9067 e347 e84f b145 7b83 d245 f1a9 9745
00000220: daba b244 656a 4944 7544 9844 4a47 5c46
00000230: cdc3 3248 e0ac 5e46 bfb2 6146 5444 5743
00000240: a83c b646 0502 8843 288a 7745 e1c2 9c45
00000250: e4a0 bb46 6385 4942 e1eb 4f46 9a9c 1447
00000260: ccce a943 7300 8b46 f4c6 d546 f4c9 a643
00000270: fe40 8743 0358 e445 a60c 8c44 04b2 3245
00000280: 31ac 5246 36a3 af47 89f9 d645 f46f 1246
00000290: 6c48 5d45 f152 a742 e579 e645 2986 7347
000002a0: 6b3c 8346 090e 1f47 a510 af42 4d0c aa45
000002b0: 62de 5d43 886f a143 4787 9b44 efa0 9143
000002c0: 4525 8744 f42e 3047 17db e147 68e2 8346
000002d0: 31c4 c343 ee8c 2548 dd4a 0545 be26 9845
000002e0: 9600 4a45 dde2 a846 199e c846 dbe6 c745
000002f0: ee4b 0547 d84d 3446 6ce9 9f45 9c01 8346
00000300: 28c1 5047 4a69 2544 a749 b946 288a d146
00000310: 3189 2543 0dc2 b647 25bb 0045 e9e2 3544
00000320: 4351 c746 e441 8e45 7618 c243 3f71 6d46
00000330: 4cbe 1244 5275 8744 7783 0d45 07dd c144
00000340: cbee 0048 9701 4444 d9d7 cf42 c94b 8e44
00000350: aaeb 8c43 c1ad 7b45 9963 ad44 dda5 3444
00000360: 68f5 0446 ca93 c146 1dbb b945 e940 3e48
00000370: 2841 2844 1fee 7146 38bf 7545 ce72 2746
00000380: 9c7d e343 b1f2 7a46 a930 d647 31e2 3348
00000390: d0a6 8e44 03e7 4046 7cdb 1544 0b57 cc45
000003a0: 809b 8b47 da64 8545 0e97 b842 250f 9145
000003b0: d68b b545 eeea 0e46 87bf 3e47 eddb f844
000003c0: 1108 cb43 62eb f344 edcb 0c46 62ba 9a47
000003d0: b0e5 9346 da76 e247 93c0 2c44 26e1 1e45
000003e0: 350a ef45 1737 2246 661a 5245 df8b 4047
000003f0: b541 a247 60ac a845 7835 9f43 0adb 9745

network.4.weight f4 [128, 256]
-0.007841371 -0.017404312 -0.09452268 0.0028046067 -0.010013878 -0.020922985 -0.026304757 0.0010124535
0.037459653 0.017262222 0.121886626 -0.02774111 -0.09925879 0.28371722 0.023455383 0.014738525
-0.09493131 -0.027205992 0.011456248 0.040444847 -0.0002146617 0.051528014 0.03253371 -0.03361509
-0.05467513 0.07470106 0.0036219873 -0.025326166 -0.0042847972 0.038266186 -0.047630277 0.0016342853
-0.055310182 0.0029510139 0.0018436917 -0.030344158 -0.071668506 -0.021174803 0.02879365 -0.023488732
0.022056028 -0.007903758 -0.013843915 -0.010787944 0.03314157 -0.05475678 -0.020234847 -0.07246812
0.008882675 0.00041188116 -0.07929346 0.0021588297 -0.07436758 -0.0035845835 -0.025853386 -0.1949515
-0.015245558 0.0067714006 0.07629 -0.064831756 0.022404153 0.19500409 -0.06433458 -0.027322944
-0.11039498 0.0070547215 -0.15763742 0.015494161 -0.011065641 0.0014489298 0.0017060812 0.036000874
0.12565672 -0.040667243 -0.0027882762 -0.04536358 -0.08747793 0.018005092 -0.15457903 -0.07673562
0.024752304 0.021130458 -0.06707338 0.07193535 0.013050815 -0.06359838 0.08373204 -0.043615043
0.04264003 -0.035879754 -0.09088886 0.06140942 -0.011451526 -0.0020237593 -0.035608824 -0.11568568
-0.070745446 -0.0045690807 -0.052073497 0.0798081 -0.14360353 0.09429066 -0.009502263 0.061851863
0.05067687 -0.16087309 0.061925013 0.036440816 0.21341467 0.12041139 -0.033645097 -0.05358161
-0.002309075 0.04943749 -0.058264524 -0.024210066 0.024546407 -0.034647565 -0.08487567 -0.23380195
0.018893434 0.0016882905 0.04230073 0.2267446 -0.033517554 -0.03829429 -0.035339605 -0.08081266
0.016448284 0.059379824 -0.040339828 0.120186806 0.025175417 0.047065884 0.03039223 -0.0007772226
0.0015250054 -0.10588131 -0.020296643 0.015842192 -0.10628048 -0.03869882 0.030684887 -0.042882916
0.006685614 -0.004312144 -0.104175255 0.005519532 0.03337206 0.012137236 -0.14674239 0.020956025
-0.044772413 -0.1345925 -0.026021885 0.014584155 -0.10129172 -0.109576024 -0.043284293 0.015917622
0.006567365 -0.086568415 -0.08591622 0.007854312 0.22336242 0.008425671 -0.034661595 0.059449434
-0.03767636 -0.09699628 -0.01614562 -0.03672945 -0.04601929 -0.029660847 0.0857716 -0.008565297
0.022577308 0.027093006 0.04252717 0.039010398 0.050252773 -0.049726114 -0.008373707 -0.12138093
-0.055646308 0.0067543103 -0.033630267 0.09502628 0.049801227 0.02968475 0.05629665 -0.019584091
0.042103093 -0.0108828135 -0.056972187 0.02632503 0.034192372 0.031650614 -0.072019406 -0.009616344
0.07975735 0.13209304 0.025412746 0.079703495 -0.003832747 -0.0035977524 0.07604866 -0.020642847
0.00085730874 0.16021243 0.04903552 -0.057069376 0.011373911 0.05925765 -0.027255263 -0.03236179
-0.13706776 -0.008462229 0.00415186 0.049517155 -0.05734892 -0.06276777 0.039032202 -0.044712335
-0.018669413 -0.021354748 -0.070166625 -0.07402749 0.034115247 -0.19613728 0.09436295 0.020414306
-0.023177141 0.024302276 -0.015932603 -0.010871937 -0.14638038 -0.0018418746 0.042240396 0.054478005
-0.03702856 0.023928644 0.07427044 -0.055972878 -0.05922971 0.030785726 0.088323265 0.055462427
-0.19327173 -0.039808653 -0.017457409 0.008491938 -0.05810212 -0.01930451 -0.017194023 -0.083946265
00000000: 1879 00bc 7d93 8ebc 1b95 c1bd 7ecd 373b
00000010: 4011 24bc ae66 abbc 137d d7bc 4db4 843a
00000020: 4b6f 193d 8169 8d3c b29f f93d 5341 e3bc
00000030: 3148 cbbd 6243 913e 8125 c03c db79 713c
00000040: 596b c2bd 1adf debc fdb2 3b3c 7fa9 253d
00000050: d016 61b9 0a0f 533d 1142 053d faaf 09bd
00000060: 07f3 5fbd dffc 983d dd5e 6d3b d278 cfbc
00000070: 7c67 8cbb 01bd 1c3d f717 43bd 8435 d63a
00000080: ee8c 62bd cc65 413b 07a8 f13a 5094 f8bc
00000090: f0c6 92bd c876 adbc a9e0 eb3c 716b c0bc
000000a0: d8ae b43c c47e 01bc 97d1 62bc ebbf 30bc
000000b0: 74bf 073d a548 60bd 8dc3 a5bc 2a6a 94bd
000000c0: a488 113c c1f1 d739 9c64 a2bd 277b 0d3b
000000d0: 084e 98bd 55eb 6abb 7bca d3bc 5ea1 47be
000000e0: 81c8 79bc a0e2 dd3b ee3d 9c3d 83c6 84bd
000000f0: ea88 b73c 27af 473e d9c1 83bd 5ed4 dfbc
00000100: c316 e2bd 4b2b e73b b46b 21be 39db 7d3c
00000110: aa4c 35bc 04ea bd3a 969e df3a a775 133d
00000120: 28ac 003e b292 26bd 83bb 36bb 29cf 39bd
00000130: a127 b3bd 6a7f 933c f749 1ebe 9127 9dbd
00000140: 58c5 ca3c c819 ad3c c55d 89bd d752 933d
00000150: 16d3 553c de3f 82bd b47b ab3d b0a5 32bd
00000160: 50a7 2e3d a6f6 12bd f023 babd 7288 7b3d
00000170: 2e9f 3bbc 0ca1 04bb 8fda 11bd 9dec ecbd
00000180: fde2 90bd 3ab8 95bb 054b 55bd 6e72 a33d
00000190: ce0c 13be 761b c13d 61af 1bbc 6158 7d3d
000001a0: 8d92 4f3d eabb 24be 15a5 7d3d f742 153d
000001b0: 6089 5a3e 3f9a f63d 71cf 09bd 6478 5bbd
000001c0: da53 17bb f77e 4a3d c8a6 6ebd 3054 c6bc
000001d0: 8c15 c93c 9bea 0dbd 4cd3 adbd c769 6fbe
000001e0: 67c6 9a3c a149 dd3a 8843 2d3d bd2f 683e
000001f0: b449 09bd 79da 1cbd 43c0 10bd 1c81 a5bd
00000200: 8dbe 863c 4238 733d 603b 25bd 8024 f63d
00000210: ad3c ce3c 28c8 403d 20f9 f83c 87be 4bba
00000220: b1e2 c73a 4dd8 d8bd 2545 a6bc 7cc7 813c
00000230: 95a9 d9bd a782 1ebd df5e fb3c ffa5 2fbd
00000240: ff12 db3b e34c 8dbb d659 d5bd 31dd b43b
00000250: 24b1 083d 42db 463c a343 16be f8ab ab3c
00000260: 4763 37bd 9ed2 09be d92b d5bc 61f2 6e3c
00000270: 0972 cfbd 6569 e0bd df4a 31bd ac65 823c
00000280: 0d33 d73b c84a b1bd d8f4 afbd 5faf 003c
00000290: 1eb9 643e d30b 0a3c 51f9 0dbd 4081 733d
000002a0: 8752 1abd fca5 c6bd d243 84bc 9f71 16bd
000002b0: b97e 3cbd 4efb f2bc 05a9 af3d 7655 0cbc
000002c0: 0cf4 b83c 27f2 dd3c f830 2e3d 5ec9 1f3d
000002d0: dad5 4d3d 9cad 4bbd df31 09bc 9196 f8bd
000002e0: 62ed 63bd 4353 dd3b e4bf 09bd 239d c23d
000002f0: 5ffc 4b3d 6f2d f33c 5197 663d d16e a0bc
00000300: 4b74 2c3d d44d 32bc ab5b 69bd 97a7 d73c
00000310: 4d0d 0c3d 13a4 013d e97e 93bd df8d 1dbc
00000320: d257 a33d 6643 073e 642e d03c 963b a33d
00000330: d32e 7bbb 45c8 6bbb 66bf 9b3d 301b a9bc
00000340: 04bd 603a ba0e 243e 78d9 483d 94c1 69bd
00000350: a459 3a3c 26b8 723d 6e46 dfbc cc8d 04bd
00000360: 7e5b 0cbe 29a5 0abc 530c 883b 80d2 4a3d
00000370: b3e6 6abd 638c 80bd 3be0 1f3d 4824 37bd
00000380: 99f0 98bc 27f0 aebc 85b3 8fbd ba9b 97bd
00000390: 6ebc 0b3d 36d8 48be 5d41 c13d e73b a73c
000003a0: fddd bdbc 9115 c73c 1785 82bc 3520 32bc
000003b0: bde4 15be 0e6b f1ba 4404 2d3d 5424 5f3d
000003c0: 42ab 17bd 0106 c43c 1a1b 983d d143 65bd
000003d0: da9a 72bd 5932 fc3c d4e2 b43d 922c 633d
000003e0: 06e9 45be 660e 23bd d702 8fbc c521 0b3c
000003f0: 7dfc 6dbd 7e24 9ebc 7bda 8cbc 05ec abbd

network.4.bias f4 [128]
-0.05591876 -0.023149498 -0.00025495383 -0.020520126 0.04351041 0.008070122 0.043454815 -0.0056649316
0.015417081 0.049676456 -0.06261882 0.04345705 0.055154376 0.015472592 0.026423916 0.0054968516
-0.043695685 -0.061110448 -0.015741348 0.014441249 0.031580783 -0.014737149 -0.033578083 0.03156969
0.010791479 0.06177479 0.024066083 -0.019569043 -0.040083498 0.04298079 0.018342547 -0.00046277719
-0.012303792 0.024811901 0.0044446657 0.020789433 -0.022231134 0.040792137 -0.052562226 -0.055986073
0.053837087 0.014212538 -0.016604206 0.05070026 0.013986721 -0.039599456 0.020425173 0.024297554
-0.046828598 0.029131146 0.024149446 0.04263545 -0.0123713575 0.0041439426 0.026984008 -0.011083098
0.02608037 -0.055603698 -0.057058442 0.010714486 -0.027240627 0.05259666 -0.01622784 0.05696733
-0.054686908 0.033823006 0.046643384 0.030496819 -0.045172352 0.05229303 0.046377778 0.035504308
-0.022371603 0.040736746 0.036050417 -0.04937614 0.020702299 0.024326954 -0.04601221 -0.032818444
0.0012839595 0.049616262 -0.042652383 0.036751363 -0.051268805 -0.02600623 -0.04728008 -0.027509516
-0.034412254 0.058551613 -0.010701454 -0.04169943 0.027299294 -0.0015291896 -0.0036932633 -0.020956025
-0.01873881 -0.055417 -0.022162432 -0.014951714 -0.046569902 0.04632557 -0.04943155 0.052081756
-0.024626698 -0.063228525 -0.060114767 0.057375863 0.01582158 -0.022346789 -0.043375492 0.049909078
0.0385986 -0.051796414 -0.040167358 -0.0063172607 0.002616099 -0.0024081087 0.014814809 -0.0051381104
-0.010599696 -0.025126014 -0.030886633 0.0012792177 -0.047922228 -0.020570451 0.005803099 0.03169849
00000000: 120b 65bd 04a4 bdbc 53ab 85b9 d319 a8bc
00000010: f937 323d 8c38 043c adfd 313d e4a0 b9bb
00000020: ed97 7c3c 8a79 4b3d 4c3e 80bd 0500 323d
00000030: 8ee9 613d c180 7d3c f876 d83c ef1e b43b
00000040: 3ffa 32bd f34e 7abd 00f4 80bc fd9a 6c3c
00000050: da5a 013d 1574 71bc 2c89 09bd 384f 013d
00000060: bece 303c 9007 7d3d 3c26 c53c 424f a0bc
00000070: 982e 24bd a00c 303d 1c43 963c e7a0 f2b9
00000080: d895 49bc 5442 cb3c 8fa4 913b 9a4e aa3c
00000090: 111e b6bc a815 273d 7d4b 57bd a751 65bd
000000a0: 4784 5c3d b4db 683c 8b05 88bc 13ab 4f3d
000000b0: 8f28 653c 0a33 22bd b152 a73c aa0b c73c
000000c0: 58cf 3fbd 71a4 ee3c 0fd5 c53c 82a2 2e3d
000000d0: 3cb1 4abc e9c9 873b 910d dd3c e295 35bc
000000e0: 80a6 d53c b4c0 63bd 1db6 69bd d08b 2f3c
000000f0: bc27 dfbc 986f 573d 3ff0 84bc 9356 693d
00000100: 61ff 5fbd fe89 0a3d 220d 3f3d 77d4 f93c
00000110: a506 39bd 3731 563d a0f6 3d3d f76c 113d
00000120: a744 b7bc 93db 263d 9aa9 133d a33e 4abd
00000130: de97 a93c 5249 c73c 4d77 3cbd a26c 06bd
00000140: 884a a83a 6c3a 4b3d 44b4 2ebd 9988 163d
00000150: 3dff 51bd 040b d5bc c2a8 41bd a35b e1bc
00000160: ddf3 0cbd d1d3 6f3d 2755 2fbc 06cd 2abd
00000170: c5a2 df3c 176f c8ba ad0a 72bb f8ab abbc
00000180: 2282 99bc f0fc 62bd fd8d b5bc 09f8 74bc
00000190: 15c0 3ebd e2bf 3d3d bd78 4abd ae53 553d
000001a0: eebd c9bc f57d 81bd e73a 76bd f402 6b3d
000001b0: 429c 813c 9d10 b7bc 80aa 31bd 766d 4c3d
000001c0: 9119 1e3d 7a28 54bd 8786 24bd 0601 cfbb
000001d0: dc72 2b3b 5cd1 1dbb d0b9 723c 985d a8bb
000001e0: 59aa 2dbc 12d5 cdbc f705 fdbc 6cab a73a
000001f0: 194a 44bd 5d83 a8bc ec27 be3b 47d6 013d

network.5.weight f4 [128]
0.90139765 0.912661 0.9480302 0.9416745 1.052103 0.9878058 0.9772679 1.0636146
0.9237456 1.0121688 1.0466995 0.90903777 0.9487081 0.9358268 0.88291097 0.9038991
0.83132786 0.87882674 0.8784506 0.88762057 1.0372673 1.115189 1.0114665 1.0179025
1.061313 0.8906829 0.95439845 1.0491426 1.0064973 0.9348356 1.025737 1.0588413
1.0120978 0.9436024 0.93609786 0.9751853 0.91821045 0.9217115 0.9459691 0.9649246
0.88332003 0.98824793 0.88924396 0.8645716 1.0311933 0.89859706 0.94564193 0.9918165
1.1134627 1.007214 0.90470225 0.99979067 0.92506456 1.0017133 0.8875389 0.9999624
1.0209625 0.98053706 1.0597651 0.95253986 1.0628027 1.0109375 0.8948933 0.976721
0.90890795 0.81714916 0.91950655 1.0508952 0.92763215 1.0140958 0.77324915 0.9061827
0.8606988 1.0172462 1.0512234 1.0492412 0.8893843 0.9364972 0.93573576 0.9996272
0.9646858 0.96398854 0.9410568 0.9098223 0.87792015 1.0088438 0.9481753 0.9763709
0.9449671 0.91347015 0.8035714 0.8859632 1.0040085 1.0211512 0.91136044 0.9169703
1.031409 0.9363129 0.916765 0.87785137 0.89891964 0.9585823 0.97829366 1.0367861
0.92344147 1.033448 0.8862743 1.1674572 0.88811904 0.92584693 1.0427853 0.99388206
1.0334625 0.98521024 1.023757 0.98562676 0.93605936 1.0147295 0.8907609 0.8830421
0.92803407 1.1556735 1.0367668 0.99321 0.9152936 0.9198891 1.0014833 0.93590283
00000000: ffc1 663f 27a4 693f 1bb2 723f 9411 713f
00000010: 50ab 863f d7e0 7c3f 3b2e 7a3f 8624 883f
00000020: 977a 6c3f bf8e 813f 40fa 853f b3b6 683f
00000030: 89de 723f 5892 6f3f 7406 623f ee65 673f
00000040: e7d1 543f cafa 603f 23e2 603f 1a3b 633f
00000050: 2dc5 843f 83be 8e3f bc77 813f a14a 823f
00000060: 1bd9 873f cb03 643f 7553 743f 4e4a 863f
00000070: e7d4 803f 6351 6f3f 5a4b 833f 1d88 873f
00000080: 6c8c 813f ed8f 713f 1ca4 6f3f bea5 793f
00000090: d70f 6b3f 49f5 6b3f 082b 723f 4c05 773f
000000a0: 4321 623f d1fd 7c3f 7ea5 633f 9054 5d3f
000000b0: 24fe 833f 750a 663f 9715 723f b0e7 7d3f
000000c0: f285 8e3f 63ec 803f 919a 673f 48f2 7f3f
000000d0: 08d1 6c3f 2438 803f c035 633f 89fd 7f3f
000000e0: e6ae 823f 7a04 7b3f 62a6 873f a7d9 733f
000000f0: eb09 883f 6666 813f ba17 653f 630a 7a3f
00000100: 31ae 683f b030 513f c864 6b3f bc83 863f
00000110: 4d79 6d3f e4cd 813f a8f3 453f 97fb 673f
00000120: c256 5c3f 2035 823f 7d8e 863f 894d 863f
00000130: b1ae 633f 48be 6f3f 618c 6f3f 91e7 7f3f
00000140: a6f5 763f f4c7 763f 19e9 703f 1dea 683f
00000150: 60bf 603f cb21 813f 9ebb 723f 71f3 793f
00000160: 5de9 713f 2ed9 693f dbb6 4d3f 7cce 623f
00000170: 5a83 803f 15b5 823f eb4e 693f 91be 6a3f
00000180: 3605 843f 34b2 6f3f 1cb1 6a3f deba 603f
00000190: 991f 663f a665 753f 7471 7a3f 68b5 843f
000001a0: a966 6c3f 0648 843f dfe2 623f 3d6f 953f
000001b0: c55b 633f 4e04 6d3f fd79 853f 0e6f 7e3f
000001c0: 8048 843f bd36 7c3f 780a 833f 0952 7c3f
000001d0: 96a1 6f3f a8e2 813f e808 643f 0c0f 623f
000001e0: a493 6d3f 1ced 933f c6b4 843f 0343 7e3f
000001f0: ae50 6a3f da7d 6b3f 9b30 803f 5497 6f3f
